6_딥러닝/2_파이토치기본모델링/best_model.pth (torch, 159842 bytes, 28 tensors)

fc1.weight f4 [32, 11]
0	0xbe76876e	-0.240751
1	0x3e9ded46	0.30845088
2	0xbe8fb32f	-0.28066394
3	0x3e8fc581	0.2808037
4	0xbe212adc	-0.15739006
5	0xbda7df05	-0.081968345
6	0x3e25ce70	0.16192031
7	0xbe8892ca	-0.2667449
8	0xbdac4d9e	-0.08413242
9	0x3e7fa602	0.2496567
10	0xbd27ad16	-0.040936552
11	0x3ccfcd49	0.025366442
12	0xbdc7d68b	-0.09757718
13	0x3e4e7dc2	0.2016516
14	0x3d3a4df5	0.045484502
15	0xbcfdc42c	-0.030977331
16	0x3e83d09e	0.257451
17	0xbe3e4cd4	-0.18583995
18	0xbe175d02	-0.14781573
19	0x3e1c0960	0.15237951
20	0x3e0818f6	0.13290772
21	0x3e9272cb	0.28603205
22	0x3dcf6f0c	0.101286024
23	0xbe46ca29	-0.19413055
24	0xbdfcb31a	-0.123388484
25	0xbdf9cccd	-0.12197266
26	0xbe881502	-0.26578528
27	0xbdf2229f	-0.1182301
28	0x3e46e99c	0.19425052
29	0x3e811798	0.25213313
30	0xbd7b1225	-0.0612966
31	0x3e2e2dc0	0.1700964
32	0x3e8f1761	0.27947524
33	0xbe96b634	-0.29435885
34	0x3e3d346e	0.18477032
35	0x3e55fe2a	0.20897737
36	0x3d7bee86	0.06150677
37	0xbe82cd25	-0.25547138
38	0x3e2472a6	0.1605936
39	0x3e5e2b9f	0.21696328
40	0x3e5038fa	0.20334235
41	0xbd7d1e38	-0.061796397
42	0xbeb04f51	-0.34435514
43	0xbeac910a	-0.33704406
44	0x3e0b62d2	0.13611916
45	0xbddedd6d	-0.10882077
46	0xbe0178ca	-0.12643734
47	0x3dae956c	0.08524594
48	0xbe5d20f6	-0.21594605
49	0xbe16435a	-0.1467413
50	0xbe1074fb	-0.14107125
51	0xbe79431a	-0.24342003
52	0x3e2b9fa8	0.16760123
53	0x3e1daa45	0.15396984
54	0x3e786bf5	0.24259932
55	0x3d3821d9	0.044954155
56	0x3e991286	0.29896945
57	0x3d4fcd81	0.050733093
58	0x3e2603eb	0.16212432
59	0xbe6a216a	-0.22864309
60	0xbe72661b	-0.23671763
61	0x3e54f179	0.2079524
62	0x3deac264	0.11462858
63	0x3d03ccf6	0.032177888
64	0x3d3cc501	0.046086315
65	0xbdfa7c0b	-0.122306906
66	0xbcec614c	-0.028854989
67	0x3e6d6e58	0.23186624
68	0x3e1755c2	0.14778808
69	0x3d80c9e4	0.062885076
70	0xbe289cef	-0.16466115
71	0x3dd7b4cd	0.10532532
72	0x3e990f9c	0.29894722
73	0x3e8af279	0.27138117
74	0xbdff3e77	-0.12463086
75	0x3e3ff1f7	0.18744646
76	0xbd57f4fa	-0.052723862
77	0x3bc12ab3	0.0058949827
78	0xbda07009	-0.07833869
79	0x3e1e1864	0.15438992
80	0xbe7229e9	-0.236488
81	0xbe268b2d	-0.16264029
82	0x3e35b371	0.17744233
83	0x3dbcd6d1	0.092206605
84	0xbe44108f	-0.19146942
85	0xbdd9eeb5	-0.10641233
86	0x3e82d67a	0.25554258
87	0x3da12f12	0.07870306
88	0x3e93889d	0.28815165
89	0x3e0f99c0	0.14023495
90	0x3e97d852	0.29657227
91	0x3ea86381	0.32888415
92	0xbe36ff47	-0.17870818
93	0x3df6fb1a	0.120596126
94	0xbd9fada3	-0.077967905
95	0x3e46528b	0.19367425
96	0xbdf579b0	-0.11986101
97	0xbe122b76	-0.14274392
98	0xbe145c01	-0.14488222
99	0xbd403c3d	-0.046932448
100	0xbe81744c	-0.2528404
101	0xbe1a21c4	-0.15051943
102	0xbcf0b06c	-0.029381
103	0xbe7ed0b0	-0.24884295
104	0x3d8a75f8	0.06760782
105	0xbdceefb1	-0.10104311
106	0xbd8c92f4	-0.068639666
107	0xbe303352	-0.17207077
108	0x3d8f636d	0.07001386
109	0x3db70687	0.08936792
110	0x3e800cea	0.25009853
111	0x3d399471	0.04530758
112	0xbe4137e0	-0.18868971
113	0xbd1e0690	-0.038580477
114	0x3e8c49a6	0.2739994
115	0xbe38ebba	-0.18058673
116	0x3db3d2e1	0.08780456
117	0x3e3a8309	0.18214048
118	0x3dc46208	0.095890105
119	0x3d01ea58	0.03171763
120	0xbe40571f	-0.18783234
121	0xbd868b30	-0.06569517
122	0xbcbe9109	-0.023262518
123	0xbe57c78c	-0.21072215
124	0xbd877440	-0.0661397
125	0x3d07c21c	0.0331441
126	0xbc6b1fc5	-0.014350836
127	0x3e3e3814	0.1857608
128	0x3e292a63	0.16520076
129	0xbb9667cc	-0.0045900103
130	0xbe5a5900	-0.21323013
131	0xbe612b3c	-0.21989149
132	0xbe58053e	-0.2109575
133	0x3e231d07	0.15929042
134	0xbd65d051	-0.05610687
135	0xbdf0a7a7	-0.11750727
136	0x3e966b57	0.2937877
137	0xbe1cf327	-0.1532713
138	0xbe43d10f	-0.19122718
139	0x3e859b55	0.2609507
140	0xbe97fbe7	-0.29684374
141	0xbe45820c	-0.1928789
142	0xbe559674	-0.20858175
143	0x3c37815f	0.011200278
144	0x3dba609a	0.091004565
145	0x3e7854d6	0.24251112
146	0x3e03769a	0.12838212
147	0xbcee9823	-0.029125279
148	0xbc94e5cd	-0.018175984
149	0xbc169a7f	-0.009192108
150	0xbe8f759d	-0.2801942
151	0xbd7a9b50	-0.061183274
152	0x3d9e6984	0.07734969
153	0x3dc045ba	0.09388299
154	0x3e81d85f	0.2536039
155	0xbb7fdd02	-0.0039041643
156	0xbe3fc35f	-0.18726872
157	0x3d64709c	0.055771455
158	0xbe824d45	-0.25449577
159	0xbcbb9075	-0.02289603
160	0xbcaf6889	-0.021412151
161	0x3dea5e00	0.1144371
162	0x3e4d59f6	0.20053849
163	0xbe5a6c81	-0.21330453
164	0x3e0f44df	0.13991116
165	0xbe031b69	-0.12803425
166	0x3e6947f0	0.22781348
167	0x3da29576	0.07938664
168	0xbe8ea57f	-0.27860638
169	0xbe76e67f	-0.24111365
170	0x3e6b96eb	0.2300679
171	0x3e9692de	0.29408926
172	0x3e810f65	0.25207058
173	0xbe048307	-0.12940608
174	0xbdf82726	-0.12116842
175	0x3e1818f1	0.14853264
176	0x3cc88445	0.024477134
177	0x3e3b3b65	0.18284376
178	0x3d01b969	0.03167096
179	0xbe623cd5	-0.22093518
180	0xbd9a5c9d	-0.07537196
181	0xbe051d2d	-0.12999411
182	0x3e901f10	0.281487
183	0x3dc340d4	0.09533849
184	0x3e91bcaf	0.28464267
185	0x3e372efe	0.1788902
186	0xbd0a0653	-0.033697437
187	0xbd2b0152	-0.041749306
188	0x3e540374	0.20704442
189	0xbdc7cd4f	-0.097559564
190	0xbcfcd004	-0.030860908
191	0x3dd946da	0.10609217
192	0xbc801414	-0.015634574
193	0x3e899219	0.26869276
194	0x3e565730	0.20931697
195	0xbe3ecb79	-0.18632306
196	0xbc4db082	-0.01255429
197	0x3c88f05b	0.016716173
198	0x3d1f93fa	0.03895948
199	0xbdf0ce6f	-0.11758124
200	0xbe86dea5	-0.2634174
201	0xbe8e822e	-0.27833694
202	0x3e130d57	0.14360557
203	0x3e6511b6	0.22370037
204	0xbdb9faf4	-0.09081069
205	0x3db7f26f	0.089817874
206	0xbe1e96f3	-0.1548727
207	0xbd06c01e	-0.03289806
208	0x3e6f58f5	0.23373778
209	0x3e79a364	0.24378735
210	0xbd6b4888	-0.057442218
211	0x3d11d779	0.03560588
212	0xbd02025a	-0.031740524
213	0xbe62c3d2	-0.22145012
214	0x3ae340cd	0.0017338038
215	0xbc6f0a75	-0.0145898955
216	0xbbd12414	-0.0063824747
217	0x3c61a4a2	0.013772162
218	0x3d4881b3	0.048951816
219	0x3e019ba1	0.12657024
220	0xbe584860	-0.21121359
221	0xbe314cb3	-0.17314415
222	0xbba23e0a	-0.0049512433
223	0x3dfff9e8	0.12498838
224	0xbe80dc1f	-0.2516794
225	0x3e2a796e	0.16647884
226	0x3db61bc8	0.088920176
227	0xbdae2600	-0.08503342
228	0xbe4a3065	-0.19745024
229	0x3e629baf	0.22129701
230	0xbe82e2de	-0.2556371
231	0x3e8a29cf	0.26985022
232	0x3e41ef68	0.18938982
233	0xbe8a148f	-0.2696881
234	0x3dceea04	0.10103229
235	0x3dfec3a4	0.12439659
236	0xbe5cc277	-0.21558557
237	0x3e2ea436	0.17054829
238	0xbe1795b4	-0.14803201
239	0x3e315cc9	0.17320551
240	0xbbd07b0d	-0.006362325
241	0x3e853559	0.26017264
242	0x3daf7c16	0.085685894
243	0xbeace6d6	-0.33769864
244	0x3e9c7a31	0.30561975
245	0xbe088f26	-0.13335857
246	0xbded44bc	-0.11585376
247	0xbcc62336	-0.024186712
248	0xbe7631d7	-0.2404245
249	0xbe01db9f	-0.12681435
250	0xbe5f0a60	-0.21781301
251	0xbd3ef171	-0.046616975
252	0xbdab99ae	-0.083789214
253	0xbbce7418	-0.0063004605
254	0xbe80a392	-0.25124794
255	0x3e337830	0.17526317

fc1.bias f4 [32]
0	0xbe630da3	-0.22173171
1	0xbd24864f	-0.04016715
2	0x3dc25c86	0.09490304
3	0x3e21e82b	0.15811221
4	0xbe8f11b3	-0.2794319
5	0x3e041200	0.12897491
6	0xbd6e7c3e	-0.058223955
7	0x3e102c00	0.14079285
8	0x3de11cce	0.10991822
9	0x3e4430a7	0.19159184
10	0x3e0c0ec9	0.13677515
11	0xbe96e2c6	-0.2946989
12	0x3e5cb5c7	0.21553718
13	0xbe808203	-0.2509919
14	0x3db5ea7e	0.088826165
15	0xbe8447ef	-0.2583613
16	0x3ceeb5cf	0.029139427
17	0xbe7f4a3f	-0.24930666
18	0xbe9f7a29	-0.31147888
19	0xbe541343	-0.20710473
20	0x3e2ee9f1	0.17081429
21	0xbe88d5cc	-0.26725614
22	0x3e750eab	0.23931377
23	0xbd064ffb	-0.03279112
24	0xbd035d94	-0.032071665
25	0xbe6ef431	-0.23335339
26	0xbe7fa732	-0.24966124
27	0x3e76b64c	0.24092978
28	0x3de8f095	0.113740124
29	0xbd5bf48c	-0.053700015
30	0x3df2bf9c	0.11852953
31	0xbe8fbd38	-0.2807405

fc2.weight f4 [64, 32]
0	0x3d1280e1	0.03576744
1	0xbde05e8d	-0.10955534
2	0xbd9845bf	-0.07435178
3	0xbe174ba1	-0.14774944
4	0x3e1ba4c5	0.15199573
5	0x3c1728e4	0.009226058
6	0x3e3d3d10	0.18480325
7	0xbdffe5be	-0.12494992
8	0xbdc4dc8b	-0.09612378
9	0x3ddcd570	0.107828975
10	0xbe2ac6ac	-0.1667735
11	0x3e24ae8e	0.16082212
12	0xbde831c0	-0.11337614
13	0x3e0ce70c	0.13760012
14	0xbe1c288a	-0.1524984
15	0x3daa56a7	0.08317309
16	0x3af72965	0.0018856941
17	0xbd8e2023	-0.06939723
18	0xbdf108a8	-0.11769229
19	0xbcbd9d4c	-0.023146294
20	0xbe14bf6c	-0.14526147
21	0x3dc1b185	0.09457687
22	0x3d4229fe	0.047403328
23	0xbd9bfed7	-0.07616966
24	0xbd7e7324	-0.062121525
25	0x3d95c70f	0.07313358
26	0xbca56dea	-0.020194013
27	0x3d91c087	0.071168
28	0xbe174335	-0.14771731
29	0xbde1c640	-0.11024141
30	0xbe24a079	-0.1607684
31	0xbe0ddec2	-0.13854507
32	0xbd8e1b39	-0.06938786
33	0xbddd0f4d	-0.10793934
34	0x3c83544c	0.016031407
35	0x3e47de75	0.19518454
36	0xbe39540a	-0.18098465
37	0x3d9ff0ba	0.07809587
38	0xbe2faff9	-0.17156972
39	0xbdaaaf46	-0.08334212
40	0xbe37cbf3	-0.17948894
41	0xbc6210e5	-0.013797973
42	0x3ddadd98	0.10686797
43	0x3e20be1e	0.15697524
44	0xbda83bd7	-0.082145385
45	0xbe18e272	-0.14930132
46	0x3e19f648	0.15035355
47	0x3db2c887	0.08729654
48	0xbd8cfd32	-0.06884231
49	0xbcc85fe7	-0.024459792
50	0x3de46bb8	0.11153358
51	0xbcca2f87	-0.024680866
52	0xbe316410	-0.17323327
53	0x3d3116e7	0.043234732
54	0xbdaa3aae	-0.083119735
55	0x3de31b1c	0.11089155
56	0xbcea3de4	-0.028593965
57	0xbd0ad46c	-0.033893988
58	0xbe213151	-0.15741469
59	0xbe47b228	-0.19501555
60	0x3cf31e00	0.029677391
61	0x3dddf393	0.10837474
62	0xbd4910d3	-0.04908831
63	0xbe02854e	-0.12746164
64	0xbd874cc4	-0.06606439
65	0xbd36333e	-0.044482462
66	0xbe255d33	-0.16148834
67	0x3e3b98e5	0.18320043
68	0xbd4f2fac	-0.050582573
69	0x3d2ee951	0.042702977
70	0xbe19ac98	-0.15007246
71	0xbe107037	-0.14105307
72	0xbd88bfe0	-0.06677222
73	0xbd8d61dd	-0.069034316
74	0xbe1a3604	-0.15059668
75	0x3dae5523	0.08512332
76	0x3e382751	0.17983748
77	0xbdacaf7e	-0.0843191
78	0x3e175c41	0.14781286
79	0x3e1408c3	0.14456467
80	0xbdf123df	-0.1177442
81	0x3dfd3800	0.12364197
82	0x3d8e419c	0.06946108
83	0xbdc87da0	-0.09789586
84	0x3e46e492	0.1942313
85	0x3d9925de	0.07477926
86	0x3e122022	0.1427007
87	0x3c8d0a73	0.017216897
88	0x3d9eb766	0.07749824
89	0x3db57c9f	0.0886166
90	0x3d3c36b7	0.045950618
91	0xbe13d075	-0.14434989
92	0xbd9b6a48	-0.07588631
93	0x3e544ac3	0.20731644
94	0xbdbc8153	-0.09204354
95	0x3ccfd849	0.025371687
96	0x3d1c8b29	0.03821865
97	0x3c901c74	0.017591693
98	0xbd697ebe	-0.057005636
99	0xbc41529a	-0.011799479
100	0xbe017363	-0.12641673
101	0x3cd94ba5	0.026525328
102	0xbe0d3127	-0.13788281
103	0x3deaf892	0.11473192
104	0x3bc4408e	0.005989141
105	0x3dfa5d65	0.12224845
106	0x3d40393d	0.046929587
107	0xbd5f5540	-0.05452466
108	0x3c3b4f63	0.0114325015
109	0xbdb3c98b	-0.08778676
110	0x3c601762	0.01367745
111	0x3e241d04	0.16026694
112	0xbdf29aae	-0.11845909
113	0xbe2985fe	-0.1655502
114	0x3ded9db7	0.11602347
115	0xbd6e3ed0	-0.05816537
116	0x3e0a797a	0.13522902
117	0x3cbd3ec4	0.023101218
118	0xbe09587c	-0.1341266
119	0xbd6fe5ba	-0.058568694
120	0xbdea4aa0	-0.11440015
121	0xbc33c1f6	-0.010971537
122	0xbda56a88	-0.0807696
123	0xbe419a2d	-0.1890647
124	0xbdd3a2c7	-0.10333782
125	0xbd86b171	-0.06576813
126	0xbdabe644	-0.08393529
127	0x3dd53e9a	0.10412331
128	0xbe1be3ef	-0.15223669
129	0xbe0fd1dd	-0.140449
130	0x3db38ad6	0.08766715
131	0xbe11e86c	-0.14248818
132	0x3e237a1f	0.15964554
133	0xbdb1e84a	-0.08686884
134	0x3e15ed1c	0.14641231
135	0x3e24886f	0.1606767
136	0xbd457e8d	-0.04821639
137	0x3d812aba	0.063069776
138	0x3dfd4269	0.12366182
139	0xbe297a82	-0.1655064
140	0x3ded3a92	0.11583437
141	0xbd56fb90	-0.052486002
142	0xbd9e7620	-0.07737374
143	0x3dc355ca	0.09537847
144	0xbd1d6dd3	-0.038434815
145	0xbd15a378	-0.03653285
146	0x3d9a470b	0.075330816
147	0xbe0290aa	-0.12750497
148	0x3da8a4b6	0.08234541
149	0x3e13889a	0.14407578
150	0x3d88669b	0.066601954
151	0x3d933595	0.07187954
152	0xbdefec30	-0.11714971
153	0xbce74401	-0.028230669
154	0xbdfdd923	-0.12394931
155	0x3db3cac7	0.08778911
156	0xbca518b3	-0.020153379
157	0x3e12b924	0.14328438
158	0x3e3985e2	0.18117478
159	0xbe062996	-0.13101801
160	0x3e0f82da	0.1401476
161	0x3e2e8d14	0.17046005
162	0x3d7f1336	0.06227418
163	0x3dc11f6d	0.09429822
164	0x3e206479	0.15663327
165	0xbdf63eb1	-0.12023676
166	0x3de86ade	0.11348508
167	0x3dd1e9ff	0.10249709
168	0xbe527c3a	-0.20555201
169	0x3cfeb51c	0.031092219
170	0x3bcd7fa4	0.0062713195
171	0xbe253e06	-0.16136941
172	0xbd2167ec	-0.03940575
173	0xbdab218e	-0.083560094
174	0x3e11c100	0.1423378
175	0xbc8ed099	-0.017433451
176	0xbd9bb5ef	-0.076030605
177	0xbe234c16	-0.15946993
178	0x3ddf93e1	0.109168775
179	0x3df5c124	0.11999729
180	0xbda0539e	-0.07828449
181	0xbd072d69	-0.03300229
182	0xbded1a8d	-0.1157733
183	0x3d86cc65	0.06581954
184	0x3e229134	0.15875703
185	0x3ce9e0c3	0.028549558
186	0x3dc0d4c6	0.09415583
187	0xbe31c007	-0.17358409
188	0xbd09cd12	-0.033642836
189	0xbdd4345e	-0.10361551
190	0x3d815f04	0.06316951
191	0xbb4e21ab	-0.0031453173
192	0xbd4d3ac8	-0.050104886
193	0xbcbe9430	-0.02326402
194	0xbe0fd485	-0.14045914
195	0x3d98add3	0.07455029
196	0x3dd94bff	0.10610198
197	0xbe0a8390	-0.1352675
198	0xbce3dd4b	-0.027815482
199	0xbdac27bd	-0.08406017
200	0x3d39a0d1	0.045319382
201	0x3c1135f4	0.008862961
202	0x3d121fcf	0.035674866
203	0xbd25b92b	-0.040459793
204	0x3d225fb3	0.039642047
205	0x3e158c95	0.14604409
206	0x3c9b95a8	0.01899226
207	0xbdad6410	-0.08466351
208	0x3de3e7c2	0.11128189
209	0xbdaeeda0	-0.08541417
210	0xbc0da5ea	-0.008645514
211	0x3bbb86f4	0.005722875
212	0x3dec76ee	0.115461215
213	0xbc30b7ff	-0.010786056
214	0xbe347657	-0.17623268
215	0x3d514070	0.051086843
216	0xbc8dd214	-0.017312087
217	0x3d9bcb9e	0.07607196
218	0x3e4bbc86	0.19896135
219	0x3cd96036	0.026535135
220	0x3e3b2d54	0.1827901
221	0xbcd260bf	-0.025680898
222	0xbe112d8d	-0.14177532
223	0xbd23b704	-0.03996946
224	0xbe0248df	-0.1272311
225	0x3c65ad58	0.014018379
226	0x3cd4d579	0.025980698
227	0x3d72c0c5	0.05926587
228	0xbd256c05	-0.04038622
229	0xbd2b3bc3	-0.04180504
230	0x3ca7d7ff	0.020488737
231	0xbd3955a6	-0.045247696
232	0x3c84adbd	0.016196126
233	0x3e5267da	0.20547429
234	0x3de78a09	0.11305625
235	0x3e046adb	0.12931387
236	0x3b92249b	0.00445993
237	0x3e14132b	0.14460437
238	0xbd1d4ebf	-0.038405176
239	0xbcc1c4bd	-0.023653382
240	0xbc003cb7	-0.007826976
241	0xbe2c3b53	-0.16819505
242	0xbd916eda	-0.071012214
243	0x3d5ae01b	0.05343638
244	0x3e30f328	0.17280257
245	0x3e18284c	0.14859122
246	0x3de20f3a	0.110380605
247	0xbdaf4c3e	-0.08559464
248	0x3d9348a1	0.07191587
249	0xbd33b865	-0.043877024
250	0x3e1cd36d	0.15315028
251	0x3de10816	0.109878704
252	0x3b6fa383	0.0036565966
253	0x3de44570	0.11146057
254	0x3d118504	0.035527244
255	0xbe4050e4	-0.18780857

fc2.bias f4 [64]
0	0x3d229595	0.039693434
1	0x3e2aef62	0.1669288
2	0x3dd0ab79	0.10188956
3	0xbaaaf22a	-0.0013042141
4	0x3d8df815	0.069320835
5	0x3e2e5fe4	0.17028767
6	0xbd04714d	-0.032334615
7	0xbd34d5a6	-0.044149064
8	0x3dfc5145	0.123201884
9	0x3e262678	0.16225612
10	0xbb569536	-0.0032742745
11	0xbda7f167	-0.08200341
12	0xbdbba938	-0.09163135
13	0xbc8f02d5	-0.017457405
14	0xbcb99708	-0.022655025
15	0xbe343c61	-0.17601158
16	0xbd0f8f87	-0.035048988
17	0x3de49d1d	0.111627795
18	0x3dba3152	0.09091438
19	0xbc97670a	-0.01848175
20	0x3e32e9a4	0.1747194
21	0x3e28d28b	0.16486566
22	0x3d8520c5	0.06500391
23	0x3d5f53ad	0.05452316
24	0x3bc3dd34	0.005977297
25	0x3e249355	0.16071828
26	0xbe27ff91	-0.16406085
27	0xbe0463dc	-0.12928718
28	0xbd9855a1	-0.074382074
29	0xbc722d24	-0.01478127
30	0x3cf7f5b3	0.030268526
31	0xbe0e73c1	-0.13911344
32	0x3c2eb152	0.010662394
33	0x3df84820	0.12123132
34	0x3e3217f3	0.17391948
35	0x3d936701	0.07197381
36	0x3d035ab9	0.03206894
37	0x3e360bd7	0.17777954
38	0xbe191303	-0.14948659
39	0x3e24adec	0.16081971
40	0xbd19a05b	-0.037506443
41	0x3e1b9d8d	0.1519682
42	0x3d2d0dad	0.04224937
43	0xbdac0cfa	-0.084009126
44	0xbddc8676	-0.10767834
45	0x3dc5217f	0.096255295
46	0x3d278017	0.04089364
47	0xbe2519aa	-0.16123071
48	0xbe1ffb5f	-0.15623234
49	0xbd1adc08	-0.037807494
50	0x3e1b5634	0.15169603
51	0x3dd64741	0.10462809
52	0xbd6b4b1a	-0.05744467
53	0x3db62518	0.08893794
54	0xbd671662	-0.05641783
55	0xbbd80517	-0.0065924036
56	0xbe12eeae	-0.14348862
57	0xbd5a3429	-0.0532724
58	0x3dc61128	0.09671241
59	0xbda96960	-0.08272052
60	0xbd695679	-0.056967232
61	0xbe1ee90c	-0.15518588
62	0xbe0adfa1	-0.1356187
63	0xbc23a150	-0.00998719

fc3.weight f4 [128, 64]
0	0x3df5002e	0.11962925
1	0xbd22a24a	-0.039705552
2	0xbc55bbc8	-0.013045259
3	0xbd0cbb2c	-0.03435819
4	0x3c92a142	0.01789916
5	0xbddff690	-0.109357
6	0x3d52740a	0.051380195
7	0x3d8184a8	0.0632413
8	0xbd8dec9d	-0.06929896
9	0xbce21095	-0.027595798
10	0x3dbb9a1a	0.09160252
11	0xbd653516	-0.05595883
12	0xbda62a86	-0.081135795
13	0xbd853537	-0.065042906
14	0x3da4e3fa	0.080512956
15	0xbd9737bb	-0.073836766
16	0x3d891190	0.06692803
17	0x3d124cb3	0.035717677
18	0x3bbbc0fd	0.005729793
19	0xbdb45839	-0.0880589
20	0x3d2f2316	0.04275807
21	0xbd84668e	-0.06464873
22	0x3b6b5624	0.0035909498
23	0xbd0eb2e9	-0.03483859
24	0x3daf7c0d	0.08568583
25	0xbda381d9	-0.07983751
26	0x3d592fc0	0.053024054
27	0xbdb4fb40	-0.08836985
28	0xbc631f13	-0.013862389
29	0x3dbbbba5	0.0916665
30	0x3d9d1480	0.07669926
31	0x3de3e103	0.11126902
32	0x3de37840	0.1110692
33	0x3d3938d8	0.045220226
34	0xbd6137fc	-0.05498503
35	0xbdec42c2	-0.115361705
36	0x3db9ec96	0.09078328
37	0xbe145116	-0.14484057
38	0x3dd228b4	0.1026167
39	0xbe02d3f2	-0.12776163
40	0x3dfaacad	0.122399665
41	0x3b53af77	0.003230063
42	0x3d9796ac	0.07401785
43	0xbdd1043e	-0.10205887
44	0x3d759859	0.059959743
45	0xbd88be42	-0.06676914
46	0x3d16cd76	0.036817037
47	0x3dbae6eb	0.09126075
48	0x3bc01eb9	0.0058630374
49	0xba39197c	-0.00070609874
50	0x3ddb7e1d	0.107174136
51	0x3da0113a	0.07815786
52	0xbe02fc2e	-0.12791511
53	0xbbab25e1	-0.0052230214
54	0x3df585d3	0.119884156
55	0xbd8b9a16	-0.06816499
56	0x3c8c2e82	0.01711202
57	0xbd99dcd8	-0.07512826
58	0x3cbf9554	0.023386635
59	0xbd9248bf	-0.071427815
60	0xbdb46484	-0.08808234
61	0x3c5b886d	0.013399226
62	0xbd4a73f6	-0.049426995
63	0x3de10f8c	0.109892935
64	0xbd1a98b0	-0.03774327
65	0x3dc68b54	0.096945435
66	0xbde81943	-0.11332943
67	0x3e02110f	0.1270182
68	0xbc945066	-0.018104743
69	0xbd4a6139	-0.049409125
70	0xbcd0fc4b	-0.025510928
71	0xbcb67f42	-0.022277478
72	0x3dbf1610	0.0933038
73	0xbdc01f93	-0.09381022
74	0xbc399f97	-0.011329553
75	0x3ccea4f3	0.025225138
76	0x3d19b7ad	0.037528683
77	0xbd7c71db	-0.06163202
78	0x38f6a3e0	0.00011760718
79	0x3db2daa1	0.087331064
80	0xbe026840	-0.1273508
81	0x3d83dbe0	0.06438422
82	0x3cefbadb	0.029263904
83	0x3dcb4c1a	0.099266246
84	0x3c8b1a50	0.01698032
85	0xbe153944	-0.14572626
86	0xbc539534	-0.012913991
87	0x3d4ab539	0.049489234
88	0x3d9e9c55	0.07744662
89	0xbd1b18c0	-0.0378654
90	0x3d6b4766	0.057441138
91	0x3c433fb3	0.011917043
92	0x3cdeb0de	0.027183946
93	0x39c399ad	0.00037307796
94	0xbdbc7e84	-0.092038184
95	0x3dc31ed1	0.09527362
96	0x3be4dd60	0.006984398
97	0xbd3ace16	-0.045606695
98	0xbd93e448	-0.072212756
99	0xbd8ec396	-0.06970899
100	0xbe062ac1	-0.13102247
101	0x3cdb7efc	0.02679395
102	0x3d5454f2	0.051838823
103	0x3dbf4305	0.09338955
104	0x3d0f1e03	0.03494073
105	0x3deb8575	0.11500064
106	0xbd2b58d7	-0.04183277
107	0xbc7ef5fe	-0.015561579
108	0xbdef09db	-0.11671802
109	0x3dd4be14	0.10387817
110	0xbd316331	-0.043307487
111	0xbcdd2628	-0.026995733
112	0xbdbadce0	-0.0912416
113	0x3d463842	0.048393495
114	0xbdadb475	-0.08481685
115	0x3d62b315	0.055346567
116	0x3c9211ce	0.017830756
117	0x3d7ed4fc	0.062214836
118	0xbd06bdbe	-0.032895796
119	0xbd4e7d6d	-0.050412584
120	0xbd705c79	-0.05868194
121	0xbccbc53d	-0.024874324
122	0x3da9b2f9	0.082860895
123	0x3dd88f42	0.10574199
124	0x3c85c35a	0.016328502
125	0x3cde0227	0.027100636
126	0x3d5d8441	0.054081205
127	0xbc7e66e8	-0.015527464
128	0xbd93cb04	-0.072164565
129	0x3d75ee00	0.060041428
130	0xbd56b1ca	-0.052415647
131	0xbd826349	-0.063665934
132	0x3cd99ddb	0.02656453
133	0x3db22dd3	0.087001465
134	0xbc58aa10	-0.01322414
135	0xbcd5b6df	-0.026088176
136	0xbc72f422	-0.014828714
137	0xbde7a858	-0.11311406
138	0xbc084ae4	-0.008318637
139	0x3d9f898e	0.07789908
140	0xbd5f13d0	-0.054462254
141	0xbcb12a37	-0.021626575
142	0xbe08599a	-0.1331543
143	0x3d8525bc	0.06501338
144	0xbd96a229	-0.07355148
145	0xbd00f130	-0.031480014
146	0xbc59bcaa	-0.01328961
147	0x3e04e956	0.12979636
148	0xbd4f3812	-0.050590582
149	0xbcdb130e	-0.026742484
150	0xbcc7e494	-0.024400987
151	0xbb57011a	-0.0032807053
152	0x3e179171	0.14801575
153	0x3b7f9e7c	0.0039004376
154	0x3d1e026f	0.03857654
155	0x3dbb55f8	0.091472566
156	0x3dc7a8af	0.09748971
157	0x3c8a844f	0.016908793
158	0x3dfb59a8	0.1227296
159	0xbc94277b	-0.018085232
160	0x3d9bb4a4	0.07602814
161	0xbd25ef80	-0.040511608
162	0xbe08b02c	-0.13348454
163	0x3d950e29	0.072780915
164	0x3b51fc78	0.0032041352
165	0x3d4ac3c4	0.049503103
166	0x3aa793b2	0.0012785106
167	0xbc994e26	-0.018714022
168	0xbd6c4fba	-0.05769322
169	0x3e18bda5	0.14916094
170	0x3d40f313	0.047106814
171	0x3db6c245	0.08923773
172	0xbd00d766	-0.03145542
173	0xbdf817ee	-0.12113939
174	0xbcaa6f6f	-0.020805089
175	0xbdc1c901	-0.094621666
176	0x3c924a6b	0.01785775
177	0x3da5445a	0.08069678
178	0xbd38fb42	-0.045161493
179	0xbdc12bcd	-0.094321825
180	0xbdc76b78	-0.09737295
181	0x3d927ed5	0.071530975
182	0x3d234514	0.0398608
183	0xbd079915	-0.033104975
184	0x3ce188b4	0.027531005
185	0xbe05a41b	-0.13050883
186	0x3e07dc38	0.132676
187	0xbd1e1b4a	-0.038600244
188	0xbded4bfa	-0.11586757
189	0x3d3b7788	0.04576829
190	0x3db071aa	0.0861543
191	0xbcf79e87	-0.030226959
192	0x392a8744	0.00016262854
193	0x3d9f9289	0.07791621
194	0xbda419c7	-0.08012729
195	0x3c04734f	0.008084132
196	0xbd89ddbf	-0.06731748
197	0x3c8e2d82	0.017355684
198	0x3de39ebf	0.11114263
199	0x3d175497	0.036945906
200	0xbd54b8d4	-0.05193408
201	0xbd106b5d	-0.03525864
202	0x3d5ae087	0.053436782
203	0xbdaae3ed	-0.08344255
204	0xbdbdc717	-0.09266489
205	0xbd4338eb	-0.047661703
206	0xbd6ebaee	-0.05828374
207	0xbda268f7	-0.07930177
208	0xbdd16145	-0.10223631
209	0xbd1c745e	-0.038196914
210	0x3c7f0add	0.015566555
211	0x3d1ae104	0.037812248
212	0xbb8427a5	-0.0040330463
213	0x3d8e43e3	0.06946542
214	0xbd0cc920	-0.034371495
215	0x3da6f1d2	0.08151592
216	0xbe0427eb	-0.12905852
217	0xbdde06ae	-0.10841118
218	0xbe102645	-0.14077099
219	0x3ddde592	0.10834803
220	0x3cdae0f1	0.026718589
221	0x3d10dcc1	0.035366777
222	0x3dc930ae	0.09823738
223	0x3d639c43	0.055568945
224	0xbdac199d	-0.08403323
225	0xbcd15fd3	-0.025558388
226	0xbdd2e33c	-0.10297248
227	0xbd8f6720	-0.070020914
228	0x3cc1c67a	0.023654211
229	0xbde3b10e	-0.11117755
230	0xbd8699d5	-0.0657231
231	0xbdbd3fbb	-0.09240671
232	0xbd27f56a	-0.04100553
233	0x3d5f93b3	0.054584216
234	0xbdba751b	-0.09104367
235	0x3e1ffbc3	0.15623383
236	0xbe0691b0	-0.13141513
237	0xbdbcfda7	-0.09228068
238	0xbd9c8dfa	-0.076442674
239	0x3baf0150	0.0053407326
240	0xbdcb5c40	-0.09929705
241	0x3d2916b8	0.041281432
242	0xbdce8ae3	-0.10085084
243	0xbd1ffc20	-0.039058805
244	0x3c2b3ed4	0.010451991
245	0x3d27bc16	0.040950857
246	0xbd2aed78	-0.041730374
247	0x3dad4fb4	0.08462468
248	0xbb45db0c	-0.0030190377
249	0xbdab153c	-0.083536595
250	0xbcc48e43	-0.023993617
251	0xbddf12da	-0.108922675
252	0xbd08a34c	-0.033358857
253	0x3d9cb33e	0.07651375
254	0x3df6b789	0.12046725
255	0xbdd81256	-0.10550372

fc3.bias f4 [128]
0	0xbd9ceb85	-0.07662109
1	0xbd787560	-0.060658813
2	0x3daa72ab	0.083226524
3	0x3d49742b	0.049183052
4	0x3da39548	0.079874575
5	0xbdfd0bf6	-0.12355797
6	0x3da4e619	0.080517
7	0x3db900a6	0.09033327
8	0x3cd845b6	0.026400428
9	0x3dd60074	0.10449305
10	0xbd791300	-0.060809135
11	0x3d273470	0.040821493
12	0xbd77de00	-0.06051445
13	0x3c912018	0.017715499
14	0xbdd4ac78	-0.10384458
15	0xbde0bfa0	-0.109740496
16	0x3c967602	0.018366817
17	0x3ddc9ae4	0.107717305
18	0x3d97fe48	0.07421547
19	0x3dc4f316	0.096166775
20	0x3d3d5143	0.046220075
21	0xbded9e88	-0.11602503
22	0x3cb18cdd	0.021673614
23	0xbd291da7	-0.041288044
24	0xbd4054be	-0.046955816
25	0xbda94a38	-0.08266109
26	0xbd33910a	-0.043839492
27	0xbd18a91c	-0.03727065
28	0x3d8cc015	0.06872574
29	0x3dcaedd0	0.099086404
30	0xbdb8f3e3	-0.09030893
31	0xbc0882e4	-0.008331988
32	0x3c8493d9	0.01618378
33	0xbd4dcfbb	-0.050246935
34	0xbc05bc6d	-0.0081626
35	0x3c883f46	0.016631734
36	0x3d6096a0	0.054831147
37	0xbdee77c2	-0.11643936
38	0xbdf3e469	-0.119088
39	0x3da66607	0.08124929
40	0x3da5438f	0.080695264
41	0xbccfaafd	-0.025350088
42	0x3d4a7c0c	0.049434707
43	0xbd8391e4	-0.06424311
44	0x3d6c6bce	0.057719998
45	0xbd5e2b81	-0.054240707
46	0x3cc58ef4	0.024116017
47	0x3dd75d38	0.10515827
48	0x3de7087f	0.112809174
49	0x3bd2b514	0.0064302776
50	0xbdfe6987	-0.124224715
51	0xbc679661	-0.014134974
52	0x3dfd9eb6	0.12383787
53	0x3dc7b524	0.09751347
54	0x3d04a2ad	0.032381702
55	0x3d914643	0.070934795
56	0x3c5f9543	0.013646427
57	0xbb949368	-0.0045341738
58	0xbd7f8586	-0.062383197
59	0x3d6632ee	0.056200914
60	0xbd3afe5a	-0.045652725
61	0x3d6da470	0.058018148
62	0x3dccaedd	0.0999429
63	0xbd02ad99	-0.031903837
64	0x3db52a85	0.088460006
65	0x3ce86ec3	0.028373128
66	0x3b0d9159	0.0021601527
67	0xbdcd952b	-0.10038217
68	0x3c0804c0	0.008301914
69	0xbafb20f6	-0.0019159603
70	0xbd1ad9b1	-0.037805263
71	0xbdd1fb48	-0.10253006
72	0xbca04ebc	-0.019568793
73	0x3d57c89f	0.05268156
74	0xbb7d8856	-0.0038686
75	0xbc63321a	-0.013866926
76	0xbd91e512	-0.0712377
77	0xbcf79866	-0.030224036
78	0xbdbce9c7	-0.09224277
79	0xbd3cd8d9	-0.04610524
80	0x3d895ef5	0.06707565
81	0x3d564186	0.05230858
82	0x3dddd7d2	0.1083218
83	0x3d9abb7c	0.07555291
84	0x3d38546f	0.045002397
85	0xbd1e5119	-0.03865156
86	0xbc6f2452	-0.014596062
87	0x3d742213	0.05960281
88	0x3d41ab94	0.04728277
89	0xbd0377e2	-0.03209675
90	0xbd48f806	-0.04906466
91	0x3dec3057	0.115326576
92	0xbc6fd01e	-0.014637021
93	0x3de50de5	0.11184291
94	0xbd12d7cc	-0.03585033
95	0x3d842e8c	0.064541906
96	0x3d2a2eaa	0.04154841
97	0xbaee094d	-0.0018160731
98	0xbdda6e24	-0.10665539
99	0xbdbf88ff	-0.09352302
100	0xbcd1e3b6	-0.025621276
101	0xbce89c0c	-0.028394721
102	0xbc14de14	-0.009086151
103	0xbddfdccb	-0.10930785
104	0xbd870cf3	-0.06594267
105	0x3d18f128	0.03733936
106	0x3c26d412	0.010182397
107	0xbe028744	-0.12746912
108	0x3ce976a3	0.028498953
109	0xbd2a439a	-0.041568376
110	0x3e00bde9	0.12572445
111	0x3dec8daf	0.115504615
112	0xbbb8299d	-0.005620195
113	0xbd2491fc	-0.040178284
114	0xbcf66c87	-0.030081047
115	0xbde339f2	-0.110950366
116	0x3cfad54f	0.030619292
117	0x3d9f7b2c	0.07787165
118	0xbdc8ce97	-0.09805029
119	0x3da668c0	0.08125448
120	0x3c1561a4	0.009117518
121	0x3de4d920	0.11174226
122	0x3da67a78	0.08128828
123	0x3da340bb	0.07971331
124	0xbdef07b2	-0.1167139
125	0x3d634b67	0.05549183
126	0x3becec8e	0.007230348
127	0xbd8dbf05	-0.069212

fc4.weight f4 [64, 128]
0	0x3dc93918	0.09825343
1	0xbd983bd2	-0.07433285
2	0xbb7aafe7	-0.0038251819
3	0xbd9b6c9f	-0.07589077
4	0xbd2d5156	-0.042313896
5	0x3d8d8a22	0.06911112
6	0xbd7a9395	-0.0611759
7	0x3d802788	0.0625754
8	0x3d890d89	0.06692035
9	0xbd9e9532	-0.077433005
10	0x3dc16a07	0.09444051
11	0xbd23a1dc	-0.039949283
12	0xbd9f3264	-0.07773283
13	0xbc00b771	-0.007856236
14	0xbd6e67ba	-0.05820439
15	0x3d98d873	0.074631594
16	0x3be517f5	0.0069913813
17	0xbd211a44	-0.03933169
18	0xbdabd2b8	-0.08389801
19	0x3cce949a	0.025217343
20	0x3d8c98cb	0.068650804
21	0xbd4601ef	-0.048341688
22	0xbd6ff501	-0.058583263
23	0x3bd13e15	0.0063855746
24	0x3d7f93df	0.06239688
25	0xbdaa35dd	-0.08311055
26	0x3d84b974	0.06480685
27	0xbcc4348d	-0.02395084
28	0x3cefb8c8	0.029262915
29	0xbd2aa227	-0.041658547
30	0x3d376be3	0.044780623
31	0xbbb6281d	-0.005558981
32	0x3d30d9ec	0.043176576
33	0xbcb1c964	-0.021702476
34	0xbc6c452b	-0.014420788
35	0x3d3d9022	0.046280034
36	0x3ca6113c	0.02027189
37	0xbc907283	-0.017632728
38	0x3d9abca0	0.075555086
39	0xbdf64a66	-0.12025909
40	0x3ca8de0a	0.020613689
41	0x3c4492b6	0.011997869
42	0xbcbcfcc4	-0.023069747
43	0xbd6a1959	-0.05715308
44	0xbbabf512	-0.0052477205
45	0x3c4356e8	0.0119225755
46	0x3d3de154	0.046357468
47	0x3d88377a	0.06651206
48	0xbcc7480f	-0.024326352
49	0x3d936d95	0.071986355
50	0xbcbd72ee	-0.023126092
51	0xbc45a608	-0.012063511
52	0x3d64d7c9	0.05586985
53	0xbd8f5698	-0.06998938
54	0x3c305a5d	0.010763732
55	0xbdb8ed9f	-0.090296976
56	0x3d5965e3	0.053075682
57	0xbbca73e3	-0.0061783656
58	0xbcf588fd	-0.029972548
59	0xbd738174	-0.059449628
60	0x3ca14f03	0.019690996
61	0x3c9d79cc	0.019223116
62	0xbdd902b0	-0.10596216
63	0x3d2b332f	0.04179686
64	0x3d8212a0	0.06351209
65	0x3d063e95	0.032774527
66	0xbd7a8702	-0.06116391
67	0xbdb433e5	-0.087989606
68	0xbdcff996	-0.101550266
69	0x3d43651a	0.04770384
70	0xbcd58ee8	-0.02606912
71	0x3c4598ca	0.0120603535
72	0x3db74390	0.089484334
73	0x3d0c58c0	0.034264326
74	0xbccf5497	-0.02530889
75	0xbda098e2	-0.0784166
76	0xbdb395af	-0.08768784
77	0xbc1fd315	-0.009754916
78	0xbd997d37	-0.07494586
79	0x3bf98d8d	0.007615751
80	0x3d1ea227	0.03872886
81	0xbd8f12b5	-0.0698599
82	0xbd830d15	-0.063989796
83	0x3b56a421	0.0032751637
84	0x3d648225	0.055788178
85	0xbda5b4d5	-0.080911316
86	0xbbb08a31	-0.0053875674
87	0x3a92e2e2	0.0011206532
88	0xbd1249b1	-0.03571481
89	0xbcc86560	-0.024462402
90	0xbd7dcdf7	-0.061964
91	0xbd445d31	-0.047940437
92	0x3d2dd201	0.042436603
93	0x3d7cf331	0.061755363
94	0x3d4dcc7b	0.050243836
95	0xbcff78b6	-0.03118549
96	0xbd8667ba	-0.06562753
97	0xbda15a91	-0.07878602
98	0xbdb8b591	-0.09019006
99	0x3d8e5dd0	0.06951487
100	0x3c0e5b6c	0.008688789
101	0x3d83d198	0.06436461
102	0x3d6b3b7d	0.05742978
103	0x3ad8d889	0.0016544025
104	0x3d30ce10	0.043165267
105	0x3c841455	0.016122976
106	0xbda115e6	-0.07865505
107	0xbdaeb8eb	-0.08531364
108	0xbdb733b9	-0.08945412
109	0xbdc1418e	-0.09436332
110	0xbbc3eb70	-0.005978994
111	0xbd2b411d	-0.041810144
112	0xbbb4a7a9	-0.0055131507
113	0xbcab1b47	-0.02088703
114	0xbcc993d0	-0.024606615
115	0xbd54983a	-0.051902987
116	0xbd9c89da	-0.076434806
117	0xbda77707	-0.081769995
118	0x3da7c185	0.08191208
119	0xbde2a1e7	-0.11066037
120	0xbd26b289	-0.04069761
121	0xbcb871f3	-0.022515273
122	0xbcc9522c	-0.024575315
123	0x3c9fe493	0.019518172
124	0x3df317c7	0.118697695
125	0x3ca0234f	0.019548086
126	0xbd8ad30f	-0.067785375
127	0x3dba497c	0.09096047
128	0x3cee130d	0.029061818
129	0x3d47cf7f	0.048781868
130	0x3d224e38	0.039625376
131	0x3dc02978	0.093829095
132	0xbcbfdb78	-0.02342008
133	0xbd038dfc	-0.03211783
134	0x3b59e406	0.0033247485
135	0xbdb7a430	-0.08966863
136	0xbca59b45	-0.02021564
137	0x3cab7faa	0.020934898
138	0x3d5c972c	0.053855106
139	0x3d3bd2a0	0.045855165
140	0xbd14fec9	-0.036375795
141	0xbd9b2a60	-0.07576442
142	0xbd969686	-0.07352929
143	0x3db5a45b	0.08869239
144	0xbda2897b	-0.079363786
145	0x3d311920	0.04323685
146	0x3d926f17	0.07150095
147	0xbdeb6cfc	-0.114953965
148	0xbbe822f3	-0.0070842444
149	0xbc147d7a	-0.009063119
150	0xbc025fa1	-0.00795737
151	0xbe01fee0	-0.12694883
152	0x3c7d3ec8	0.015456863
153	0x3d89f959	0.067370124
154	0x3d7d4ea4	0.061842576
155	0x3c9c76e0	0.019099653
156	0xbd8251a8	-0.06363231
157	0x3c0352db	0.00801536
158	0xba94f187	-0.0011363485
159	0xbd9cd953	-0.07658639
160	0xbcfa73d3	-0.030572807
161	0xbbab90bc	-0.0052357595
162	0xbd77e13d	-0.06051754
163	0xbd379df3	-0.044828366
164	0x39b65e73	0.00034784115
165	0xbc893bb0	-0.016752094
166	0xbd8b96a4	-0.06815842
167	0x3dafe40b	0.085884176
168	0x3d5a444f	0.0532878
169	0xbd2fb1d9	-0.042894218
170	0xbd8f025a	-0.069828704
171	0xbb4dfbfd	-0.0031430714
172	0xbc8ec04e	-0.017425682
173	0xbdbd62c9	-0.092473574
174	0x3cdd0ca7	0.026983572
175	0xbd56d992	-0.052453585
176	0xbd05fcd2	-0.03271181
177	0xbd2d0083	-0.042236816
178	0xbd4352a5	-0.047686238
179	0x3ccfa57e	0.025347468
180	0x3d315b00	0.043299675
181	0x3d38e291	0.045137946
182	0xbc31986e	-0.010839565
183	0xbbcb4a9a	-0.0062039616
184	0xbdaf2a8c	-0.08553037
185	0xbdb62cd2	-0.088952675
186	0xbdaf5e7c	-0.08562943
187	0x3d8c13f0	0.0683974
188	0x3d97780a	0.073959425
189	0xbd8b044e	-0.067879304
190	0x3c6384b0	0.013886616
191	0xbd5eb9ec	-0.054376528
192	0xbe0ba463	-0.13636927
193	0xbdb5a098	-0.088685215
194	0xbd645070	-0.055740774
195	0x3d559f2d	0.052153755
196	0xbda46883	-0.080277465
197	0x3d8fa4c6	0.0701385
198	0xbd4066eb	-0.04697315
199	0x3bda324e	0.006658829
200	0xbd5a8685	-0.053350944
201	0xbc557553	-0.013028461
202	0xbd2dcd36	-0.042432033
203	0x3a77d49a	0.00094539823
204	0x3d594636	0.053045474
205	0xbd200ea7	-0.039076474
206	0xbaf55c76	-0.0018719572
207	0xbcda79c5	-0.026669392
208	0x3d759c07	0.059963252
209	0xbd831065	-0.063996114
210	0xbd277880	-0.040886402
211	0x3dbc33d5	0.09189574
212	0x3cd4f149	0.02599396
213	0x3caa3492	0.02077702
214	0xbc1877bc	-0.009305891
215	0x3cc21ff5	0.023696879
216	0x3cde990c	0.027172588
217	0x3d0c3bff	0.034236904
218	0xbd576e35	-0.052595336
219	0x3d824265	0.0636032
220	0x3d2c9d94	0.042142466
221	0xbdb98900	-0.09059334
222	0x3d8dc9ee	0.06923281
223	0xbdadb313	-0.08481421
224	0xbc82a8ca	-0.015949626
225	0x3d7ff4db	0.06248937
226	0xbc8d276a	-0.017230708
227	0x3d8f3e75	0.069943346
228	0xbd6d48cd	-0.057930756
229	0xbd2dad40	-0.042401552
230	0xbd506125	-0.050873894
231	0x3b422871	0.0029626156
232	0x3d6799cc	0.056543157
233	0xbdb93553	-0.09043374
234	0xbbbe8ca1	-0.005815104
235	0xbda0dee4	-0.07855013
236	0x3c8f751d	0.017511899
237	0x3d83d997	0.06437986
238	0xbd1a398d	-0.03765254
239	0xbc991a3c	-0.018689267
240	0xbd6d4be8	-0.057933718
241	0xbde57dad	-0.112056114
242	0xbc5b2d57	-0.013377509
243	0x3d86037a	0.06543632
244	0x3ca59a56	0.020215195
245	0xbcd61467	-0.026132775
246	0x3d2af4ce	0.04173737
247	0x3cc968ab	0.024586042
248	0xbd6c7f57	-0.05773863
249	0xbc479276	-0.012180915
250	0x3bc1e780	0.0059174895
251	0x3cbb68dd	0.022877151
252	0xbd6e796a	-0.05822126
253	0xbdc9489d	-0.09828303
254	0x3cf80102	0.030273918
255	0x3c4fdd90	0.012687102

fc4.bias f4 [64]
0	0xbd6d0e3c	-0.057874903
1	0xbd969815	-0.07353226
2	0x3d2d2409	0.042270694
3	0x3d9c27ca	0.07624777
4	0xbd2e9c4b	-0.04262952
5	0xbcd1ec10	-0.025625259
6	0xbd85ada3	-0.06527259
7	0xbd595679	-0.053060982
8	0x3da663cc	0.081245035
9	0x3d97537c	0.0738897
10	0xbd8f8d3c	-0.0700936
11	0x3d3091bd	0.043107737
12	0xbad08870	-0.0015909802
13	0xbda53f73	-0.080687426
14	0xbbbd6da0	-0.0057808906
15	0x3d892eb0	0.06698358
16	0x3db071fb	0.0861549
17	0xbdad76af	-0.08469903
18	0xbd9fa44e	-0.077950105
19	0xbc378cf7	-0.011203042
20	0x3d3939f5	0.045221288
21	0xbc58b946	-0.013227766
22	0x3d15d067	0.0365757
23	0xbd69c408	-0.057071716
24	0x3c1c78e2	0.009550305
25	0xbd82394e	-0.06358586
26	0xbd34ed6b	-0.044171732
27	0x3c955ed5	0.018233696
28	0xbd84d05b	-0.06485053
29	0xbd570ec6	-0.052504323
30	0xbda4d8a9	-0.08049137
31	0x3d7d55d4	0.06184943
32	0xbd4fa5c9	-0.050695214
33	0xbc27bc2f	-0.010237738
34	0xbc54c517	-0.012986443
35	0x3d8a4cc0	0.0675292
36	0xbda8dc11	-0.08245099
37	0xbd9f8099	-0.077882
38	0x3a394a8f	0.00070683
39	0x3ab43492	0.0013748577
40	0x3d152754	0.03641446
41	0xbc32b449	-0.010907241
42	0x3d061b51	0.032740895
43	0xbd703193	-0.058641028
44	0xbd337468	-0.043812186
45	0xbd964cd0	-0.073388696
46	0xbd6ce679	-0.057836983
47	0xbd806538	-0.06269306
48	0x3d31182c	0.043235943
49	0x3c99abe4	0.018758722
50	0x3b85090e	0.0040599173
51	0xbd468864	-0.048469916
52	0xbd9e3ac6	-0.07726054
53	0xbc932a3f	-0.01796448
54	0xbc8abe8b	-0.016936561
55	0x3d9c0e39	0.076199
56	0xbdaceb68	-0.08443338
57	0x3d8d0f62	0.068877
58	0xbd3e61a4	-0.046479836
59	0x3d8da1af	0.06915604
60	0xbc9768f7	-0.018482668
61	0xbd885485	-0.06656746
62	0x3d210ea4	0.039320603
63	0xbd55b936	-0.052178584

fc5.weight f4 [128, 128]
0	0xbcca900c	-0.02472689
1	0xbdb3910b	-0.08767899
2	0xbdaf64f4	-0.08564177
3	0xbd83cde0	-0.06435752
4	0x3d8d343f	0.06894731
5	0x3d8678f7	0.06566041
6	0x3d54cab6	0.051951133
7	0x3ca871a0	0.020561993
8	0x3d9b7297	0.07590216
9	0x3d3316ee	0.04372304
10	0xbd44f097	-0.048081007
11	0x3ba04d20	0.0048920065
12	0xbcb6052c	-0.022219263
13	0xbbf55580	-0.007486999
14	0x3d87dbb3	0.06633701
15	0x3daa54cb	0.08316954
16	0x3da7ef15	0.08199898
17	0xbd394d3e	-0.04523968
18	0x3d12da10	0.03585249
19	0xbc3b2270	-0.011421785
20	0x3d385f1e	0.045012586
21	0xbd1b2814	-0.03788002
22	0xbd8a0f79	-0.067412324
23	0xbda8bb5b	-0.0823886
24	0xbda4f5f4	-0.08054724
25	0xbcbb0c68	-0.022833064
26	0xbd36af72	-0.04460091
27	0x3d6734de	0.056446902
28	0xbc922944	-0.017841943
29	0x3c3d3720	0.011548787
30	0x3d9d6bbf	0.076865666
31	0xbbaf4ec0	-0.005349964
32	0x3cad2058	0.021133587
33	0x3cab54a0	0.020914376
34	0xbd3b0d07	-0.04566672
35	0xbd81b86c	-0.06334004
36	0x3cc9d810	0.02463916
37	0x3d08c9c6	0.03339555
38	0xbd876b9f	-0.06612324
39	0xbd11804c	-0.035522744
40	0xbd6b1a96	-0.0573984
41	0x3da937a1	0.082625635
42	0x3d8cc583	0.0687361
43	0x3d38f572	0.04515595
44	0xbdb1099c	-0.08644411
45	0xbcdca7d8	-0.026935503
46	0x3c815a28	0.01579006
47	0x3c885878	0.016643748
48	0xbcb4dd3c	-0.022078149
49	0xbd421f7f	-0.04739332
50	0x3d3e30fe	0.04643344
51	0xbd934bb5	-0.07192174
52	0xbd2ac1cb	-0.04168872
53	0x3d66e962	0.056374915
54	0x3d8a5d0f	0.06756031
55	0xbca74274	-0.02041743
56	0x3d479202	0.04872323
57	0x3d9019a7	0.07036143
58	0xbdb215c6	-0.08695559
59	0xbd705077	-0.058670487
60	0x3d94713d	0.07248161
61	0x3d88d2e1	0.06680847
62	0xbd93d14b	-0.07217654
63	0x3db49f41	0.08819438
64	0x3d1e6a72	0.038675733
65	0xbd88f8ba	-0.06688066
66	0xbbf3e350	-0.0074428692
67	0x3d1de0be	0.03854441
68	0x3d70ed6a	0.058820166
69	0xbd727b4a	-0.05919961
70	0xbc9cbf30	-0.019134134
71	0xbd457ba9	-0.048213635
72	0xbd776e78	-0.060408086
73	0x3d965497	0.07340353
74	0xbd8d06e0	-0.06886077
75	0xbdaa1bb9	-0.08306069
76	0xbd9e7850	-0.077377915
77	0x3d9f5651	0.077801354
78	0x3d9cbd5f	0.07653307
79	0xbcd41eee	-0.025893655
80	0xbd69c7a9	-0.057075176
81	0x3d986431	0.07440985
82	0x3cb82780	0.022479773
83	0x3d4f6302	0.05063153
84	0x3d938813	0.072036885
85	0x3d990907	0.07472425
86	0xbd5ec3e0	-0.05438602
87	0xbc723c20	-0.014784843
88	0x3b600fc0	0.0034189075
89	0x3c0c6f10	0.008571401
90	0x3d95314b	0.072847925
91	0x3d85a3a1	0.0652535
92	0xbd913fe2	-0.07092263
93	0xbd1c5e93	-0.03817613
94	0xbd4771fb	-0.048692685
95	0xbdb020d1	-0.08600009
96	0x3d499862	0.04921759
97	0x3cee06cc	0.029055975
98	0xbd997a70	-0.07494056
99	0xbb653b00	-0.0034977794
100	0xbd329d0f	-0.043606814
101	0x3c263158	0.0101436
102	0x3d679882	0.056541927
103	0x3cb6b110	0.022301227
104	0x3d8fd5a3	0.0702317
105	0x3d95aa73	0.07307901
106	0xbdaaa934	-0.08333054
107	0x3d82b88b	0.06382855
108	0xbd0fcc85	-0.035107154
109	0x3d61ea26	0.055154942
110	0xbd914c20	-0.07094598
111	0xbd8aa854	-0.06770387
112	0xbd50f5ad	-0.051015545
113	0x3d70f8aa	0.058830895
114	0x3c9be914	0.019032039
115	0x3d9bdc7f	0.07610416
116	0xbdaedbbe	-0.08538006
117	0xbd957f48	-0.072996676
118	0xbca5d668	-0.020243838
119	0x3c402bf8	0.011729233
120	0x3d602002	0.054718025
121	0x3b1b1620	0.002366431
122	0x3ba9edc0	0.0051858127
123	0x3d8b7b1f	0.06810593
124	0x3db00289	0.085942335
125	0x3d513c62	0.051082976
126	0x3d9ed1f1	0.07754887
127	0x3d664656	0.05621942
128	0x3c2ad970	0.010427818
129	0xbdb03de9	-0.086055584
130	0x3cde48b0	0.02713427
131	0xbcab1a38	-0.020886526
132	0x3cefd308	0.029275432
133	0xbd6880a8	-0.05676332
134	0x3c96f8ac	0.018429123
135	0x3cd23098	0.025657937
136	0x3d27284e	0.040809922
137	0xbd862cdf	-0.06551527
138	0x3dacd901	0.08439828
139	0xbd8eb0b7	-0.069672994
140	0x3d32a892	0.043617792
141	0x3d5ea666	0.05435791
142	0xbd047162	-0.032334693
143	0xbc844aa8	-0.01614888
144	0x3d4b155e	0.049580924
145	0x3b763720	0.0037569478
146	0x3d9e486b	0.077286564
147	0xbdac8d83	-0.08425429
148	0x3b8cba60	0.0042946786
149	0x3d8b8f0f	0.06814396
150	0xbc7cc938	-0.015428834
151	0xbb84c3d0	-0.004051663
152	0x3821b800	3.8556755e-05
153	0x3acb69c0	0.0015519187
154	0xbd2b6f06	-0.041853927
155	0x3d653eda	0.055968143
156	0x3d8662d5	0.065618195
157	0x3da05421	0.07828546
158	0xbb29a8a0	-0.0025887862
159	0xbd7f4a30	-0.06232661
160	0xbcd4586c	-0.02592107
161	0x3db37203	0.087619804
162	0x3db143cd	0.0865551
163	0x3cb445e0	0.022005975
164	0xbd978ec4	-0.07400277
165	0xbc352258	-0.0110555515
166	0x3d4f41f6	0.050600015
167	0x3c2a8cb8	0.0104095265
168	0xbc1cb498	-0.009564541
169	0xbd7c1732	-0.06154556
170	0x3d24af6a	0.04020635
171	0x3d359cb6	0.044338904
172	0x3cfa6e24	0.030570097
173	0xbd48d638	-0.04903242
174	0x3d62822e	0.05529993
175	0x3cdbc77c	0.02682852
176	0xbd0bf35e	-0.03416764
177	0x3da2ecf1	0.07955349
178	0xbb8b5f20	-0.004253283
179	0x3dae24cb	0.085031115
180	0x3d120152	0.03564579
181	0xbcc2c51c	-0.02377563
182	0xbcdb8768	-0.026797965
183	0x3d26511e	0.040604703
184	0x3bf17aa0	0.0073693544
185	0x3d56529e	0.052324884
186	0x3d165b92	0.036708422
187	0xbda2482d	-0.07923923
188	0xbd62b246	-0.055345796
189	0xbd2e140c	-0.042499587
190	0x3b9f7ed0	0.004867412
191	0x3cb1ac8c	0.021688722
192	0xbd85525c	-0.065098494
193	0xbc8c5fac	-0.017135464
194	0x3d2a295e	0.041543357
195	0xbd27e620	-0.04099095
196	0xbd9100a2	-0.07080199
197	0x3cefc144	0.02926696
198	0xbdaddea3	-0.0848973
199	0x3d308a7e	0.043100826
200	0xbdafb61b	-0.08579656
201	0x3d35fc46	0.04443004
202	0x3daf1efd	0.085508324
203	0xbd828f64	-0.06375006
204	0xba8eac40	-0.0010885075
205	0x3d407886	0.04698994
206	0xbc262c40	-0.010142386
207	0xbd83bd6a	-0.06432612
208	0xbd2fb5b9	-0.042897914
209	0xbc2c5938	-0.010519318
210	0xbd08ba29	-0.03338066
211	0x3d828fd5	0.0637509
212	0x3a262e80	0.00063393265
213	0x3db2b605	0.08726124
214	0x3d6fbf2e	0.058531933
215	0x3d9f8a87	0.07790094
216	0xbcfc9852	-0.03083435
217	0x3d85be21	0.06530405
218	0x3d40f89e	0.0471121
219	0x3b327320	0.0027229264
220	0xbd1af360	-0.037829757
221	0xbc0afb80	-0.008482814
222	0x399c6000	0.00029826164
223	0x3d1bfda2	0.03808368
224	0x3c72f248	0.014828272
225	0x3d453bae	0.048152618
226	0xbd40a8ee	-0.047036104
227	0x3cf876a4	0.03033001
228	0xbd29139b	-0.041278463
229	0x3cd85c68	0.02641125
230	0xbdb10dbb	-0.08645197
231	0xbd410e74	-0.047132924
232	0xbced327c	-0.028954737
233	0xbd560885	-0.05225422
234	0xbbbce870	-0.0057650134
235	0x3d159e7c	0.036528096
236	0x3d3936f6	0.04521843
237	0xbcde9836	-0.02717219
238	0x3c5a2080	0.013313413
239	0xbd527863	-0.05138434
240	0x3d90c4e5	0.07068805
241	0x3d933a1d	0.071888186
242	0xbd307c39	-0.043087218
243	0xbafda2c0	-0.0019350871
244	0xbd74fa38	-0.05980894
245	0x3d0a6012	0.033783026
246	0xbd0ac659	-0.033880565
247	0x3c923e8c	0.01785209
248	0xbd323d72	-0.04351563
249	0x3d87eda5	0.06637124
250	0xbd8d1149	-0.068880625
251	0xbd869d56	-0.06572978
252	0xb98e7d00	-0.00027177483
253	0x3d376192	0.044770785
254	0x3db258bf	0.08708333
255	0x3a38b400	0.0007045865

fc5.bias f4 [128]
0	0xbd8526f6	-0.06501572
1	0xbd9b97f0	-0.07597339
2	0xbcb1ce8c	-0.021704935
3	0xbd9d26eb	-0.07673439
4	0xbd69bcf7	-0.057064977
5	0xbc7afb78	-0.015318744
6	0x3c971454	0.01844231
7	0x3da174dd	0.07883618
8	0x3da1fdcf	0.07909738
9	0xbd4989c8	-0.049203664
10	0xbd93f045	-0.07223562
11	0x3d9f10af	0.07766854
12	0x3dae341f	0.08506035
13	0x3d8b9353	0.06815209
14	0x3c899634	0.016795255
15	0x3ce19124	0.027535029
16	0xbd13956c	-0.03603117
17	0x3d8bf659	0.068340965
18	0xbda60596	-0.08106534
19	0x3c7eedd8	0.015559636
20	0xbd137e16	-0.036008917
21	0xbd9b9fdb	-0.075988494
22	0x3ce03704	0.027369983
23	0x3c161070	0.009159192
24	0x3d2c60ce	0.042084508
25	0xbd84a152	-0.06476082
26	0x3d1630be	0.036667578
27	0x3d802317	0.06256693
28	0x3d06a8ec	0.03287594
29	0xbda18552	-0.07886757
30	0x3be9d590	0.0071360543
31	0xbd9232ea	-0.07138617
32	0xbda60e99	-0.08108253
33	0xbd884336	-0.066534445
34	0xbc870ad4	-0.016484655
35	0x3b2d93e0	0.0026485845
36	0x3d84a165	0.06476096
37	0xbd001fe6	-0.03128042
38	0xbda17c16	-0.07884996
39	0x3cc473d8	0.02398102
40	0xbc518f20	-0.012790471
41	0x3d211a5a	0.03933177
42	0x3cce9fc4	0.025222667
43	0x3cef18f4	0.029186703
44	0x3d813979	0.0630979
45	0xbdac7366	-0.08420448
46	0xbdac8f5e	-0.084257826
47	0x3d2afc9e	0.04174482
48	0xbdb1ddc7	-0.08684879
49	0x3d759a06	0.05996134
50	0x3bcd14c0	0.006258577
51	0x3cc088e8	0.023502782
52	0xbcf6defe	-0.030135628
53	0xbda9f6d8	-0.08299035
54	0x3bc22850	0.005925216
55	0xbd5cc500	-0.05389881
56	0x3db0f825	0.0864108
57	0xbdb2ee36	-0.087368414
58	0x3cb530dc	0.022118025
59	0xbd9d0bad	-0.076682426
60	0xbab97780	-0.0014149994
61	0x3d3442a6	0.044008873
62	0xbd3fb949	-0.04680756
63	0xba6b1880	-0.00089681894
64	0xbc803828	-0.015651777
65	0x3d1c70aa	0.038193382
66	0x3bd58b60	0.006516859
67	0x3d6ef526	0.05833926
68	0xbcb99a4c	-0.022656582
69	0xbca9aa3c	-0.020711057
70	0xbc2859a8	-0.010275282
71	0x3caba820	0.020954192
72	0x3ce75b6c	0.028241836
73	0x3da8f929	0.082506485
74	0x3d34f802	0.04418183
75	0x3d8d85c3	0.06910279
76	0xbc0feea8	-0.008784927
77	0xbbd1dc20	-0.006404415
78	0x3b813950	0.0039435998
79	0x3d7dcf4a	0.061965264
80	0xbda08b13	-0.07839026
81	0xbd32720c	-0.043565795
82	0x3cdc4074	0.026886202
83	0x3b305aa0	0.0026909485
84	0x3d3cb14e	0.04606753
85	0x3d393a7a	0.045221783
86	0xbd0ee7ac	-0.03488891
87	0xbc89f670	-0.016841143
88	0x3cbcae04	0.023032196
89	0xbdb059dd	-0.0861089
90	0x3d841c8d	0.06450758
91	0x3ca172ac	0.019708
92	0x3d11baec	0.035578653
93	0x3d45eef6	0.048323594
94	0x3d965bb5	0.073417105
95	0x3bc8bc70	0.006125979
96	0xbcb24e00	-0.021765709
97	0xbceec452	-0.029146347
98	0x3d18d8d6	0.037316166
99	0xbd8f8765	-0.07008246
100	0x3cfcff0c	0.030883335
101	0xbc885878	-0.016643748
102	0x3c7b0718	0.0153215155
103	0xbcea2ec4	-0.028586753
104	0xbd8f1b30	-0.069876075
105	0xbdb29577	-0.087199144
106	0x3d8558e7	0.065110974
107	0x3d91697f	0.071002
108	0x3c9f5f6c	0.01945468
109	0x3c5c8820	0.013460189
110	0x3d478cc6	0.048718236
111	0x3d6b91ee	0.057512216
112	0xbb340e60	-0.0027474388
113	0xbb4aa700	-0.0030922294
114	0xbd60f57b	-0.05492161
115	0x3d2b8aea	0.041880526
116	0xbc5e6cc0	-0.013575733
117	0xbc576de8	-0.013148762
118	0xbd9fe5c1	-0.07807494
119	0xbd75b956	-0.059991203
120	0xbd913e8a	-0.070920065
121	0xbda05af8	-0.07829851
122	0x3c1da8b0	0.009622738
123	0xbd85a598	-0.06525725
124	0xbdaedf73	-0.08538713
125	0xbdb1fda2	-0.08690955
126	0x3d6cb772	0.057792135
127	0x3d625aa2	0.055262215
